…
moid())\nSigmoidNet.add_module(\"L4\", nn.Linear(10, 10, bias=False))\n\nPrint model’s summary.\n\ntorch.manual_seed(42)\ndevice = torch.device(\"cuda\" if torch.cuda.is_available() else \"cpu\")\n\n\n#collapse-output\nfrom torchsummary import summary\n\nmodel_sigmoid = SigmoidNet\nmodel_sigmoid = model_sigmoid.to(device)\n\nsummary(model_sigmoid, (1, 28*28))\n\n----------------------------------------------------------------\n        Layer (type)               Output Shape         Param #\n================================================================\n           Flatten-1                  [-1, 784]               0\n            Linear-2                   [-1, 10]           7,840\n           Sigmoid-3                   [-1, 10]               0\n            Linear-4                   [-1, 10]             100\n           Sigmoid-5                   [-1, 10]               0\n            Linear-6                   [-1, 10]             100\n           Sigmoid-7                   [-1, 10]               0\n            Linear-8                   [-1, 10]             100\n================================================================\nTotal params: 8,140\nTrainable params: 8,140\nNon-trainable params: 0\n----------------------------------------------------------------\nInput size (MB): 0.00\nForward/backward pass size (MB): 0.01\nParams size (MB): 0.03\nEstimated Total Size (MB): 0.04\n----------------------------------------------------------------\n\n\nCreate
…
